scale=500.0	N=20	Net=Deep_sig.23	init=None	num_workers=4	num_seed=1000	gauge=True	traindataName=('ME_01', 'ME_CDW_01', 'ME_BDW_01')	valdataName=('ME_01', 'ME_CDW_01', 'ME_BDW_01')
len(trainset)=9600000	len(trainloader)=2344	len(valset)=480000	len(valloader)=118
Model_sig(
  (model): Model(
    (fc1): Linear(in_features=119, out_features=500, bias=True)
    (fc2): Linear(in_features=500, out_features=100, bias=True)
    (pre): Sequential(
      (0): Linear(in_features=119, out_features=500, bias=True)
      (1): BatchNorm1d(500, eps=1e-05, momentum=0.1, affine=True, track_running_stats=True)
      (2): ReLU(inplace=True)
      (3): Dropout(p=0.0, inplace=False)
      (4): Linear(in_features=500, out_features=100, bias=True)
      (5): BatchNorm1d(100, eps=1e-05, momentum=0.1, affine=True, track_running_stats=True)
      (6): ReLU(inplace=True)
      (7): Dropout(p=0.0, inplace=False)
    )
    (layer1): Sequential(
      (0): Residual(
        (fc3): Linear(in_features=100, out_features=100, bias=True)
        (fc4): Linear(in_features=100, out_features=100, bias=True)
        (res_block): Sequential(
          (0): Linear(in_features=100, out_features=100, bias=True)
          (1): BatchNorm1d(100, eps=1e-05, momentum=0.1, affine=True, track_running_stats=True)
          (2): ReLU(inplace=True)
          (3): Dropout(p=0.0, inplace=False)
          (4): Linear(in_features=100, out_features=100, bias=True)
          (5): BatchNorm1d(100, eps=1e-05, momentum=0.1, affine=True, track_running_stats=True)
        )
      )
    )
    (layer2): Sequential(
      (0): Residual(
        (fc3): Linear(in_features=100, out_features=100, bias=True)
        (fc4): Linear(in_features=100, out_features=100, bias=True)
        (res_block): Sequential(
          (0): Linear(in_features=100, out_features=100, bias=True)
          (1): BatchNorm1d(100, eps=1e-05, momentum=0.1, affine=True, track_running_stats=True)
          (2): ReLU(inplace=True)
          (3): Dropout(p=0.0, inplace=False)
          (4): Linear(in_features=100, out_features=100, bias=True)
          (5): BatchNorm1d(100, eps=1e-05, momentum=0.1, affine=True, track_running_stats=True)
        )
      )
    )
    (layer3): Sequential(
      (0): Residual(
        (fc3): Linear(in_features=100, out_features=100, bias=True)
        (fc4): Linear(in_features=100, out_features=100, bias=True)
        (res_block): Sequential(
          (0): Linear(in_features=100, out_features=100, bias=True)
          (1): BatchNorm1d(100, eps=1e-05, momentum=0.1, affine=True, track_running_stats=True)
          (2): ReLU(inplace=True)
          (3): Dropout(p=0.0, inplace=False)
          (4): Linear(in_features=100, out_features=100, bias=True)
          (5): BatchNorm1d(100, eps=1e-05, momentum=0.1, affine=True, track_running_stats=True)
        )
      )
    )
    (layer4): Sequential(
      (0): Residual(
        (fc3): Linear(in_features=100, out_features=100, bias=True)
        (fc4): Linear(in_features=100, out_features=100, bias=True)
        (res_block): Sequential(
          (0): Linear(in_features=100, out_features=100, bias=True)
          (1): BatchNorm1d(100, eps=1e-05, momentum=0.1, affine=True, track_running_stats=True)
          (2): ReLU(inplace=True)
          (3): Dropout(p=0.0, inplace=False)
          (4): Linear(in_features=100, out_features=100, bias=True)
          (5): BatchNorm1d(100, eps=1e-05, momentum=0.1, affine=True, track_running_stats=True)
        )
      )
    )
    (fc5): Linear(in_features=100, out_features=1, bias=True)
    (out): Sequential(
      (0): Dropout(p=0.0, inplace=False)
      (1): Linear(in_features=100, out_features=1, bias=True)
    )
  )
)
epoch=0	epoch loss=0.017733734119733176	val loss=0.010739086417357126
epoch=1	epoch loss=0.00974888431986173	val loss=0.009099719843268395
epoch=2	epoch loss=0.008704196502566338	val loss=0.0084612501591444
epoch=3	epoch loss=0.008132420332431793	val loss=0.008095012069741885
epoch=4	epoch loss=0.007680676499009133	val loss=0.007725303066770235
…
