Net ['02']
Model(
  (fc1): Linear(in_features=48, out_features=1000, bias=True)
  (fc2): Linear(in_features=1000, out_features=144, bias=True)
  (pre): Sequential(
    (0): Linear(in_features=48, out_features=1000, bias=True)
    (1): BatchNorm1d(1000, eps=1e-05, momentum=0.1, affine=True, track_running_stats=True)
    (2): ReLU(inplace=True)
    (3): Dropout(p=0.0, inplace=False)
    (4): Linear(in_features=1000, out_features=144, bias=True)
    (5): BatchNorm1d(144, eps=1e-05, momentum=0.1, affine=True, track_running_stats=True)
    (6): ReLU(inplace=True)
    (7): Dropout(p=0.0, inplace=False)
  )
  (layer1): Sequential(
    (0): Residual(
      (fc3): Linear(in_features=144, out_features=144, bias=True)
      (fc4): Linear(in_features=144, out_features=144, bias=True)
      (res_block): Sequential(
        (0): Linear(in_features=144, out_features=144, bias=True)
        (1): BatchNorm1d(144, eps=1e-05, momentum=0.1, affine=True, track_running_stats=True)
        (2): ReLU(inplace=True)
        (3): Dropout(p=0.0, inplace=False)
        (4): Linear(in_features=144, out_features=144, bias=True)
        (5): BatchNorm1d(144, eps=1e-05, momentum=0.1, affine=True, track_running_stats=True)
      )
      (dropout): Dropout(p=0.0, inplace=False)
    )
  )
  (layer2): Sequential(
    (0): Residual(
      (fc3): Linear(in_features=144, out_features=144, bias=True)
      (fc4): Linear(in_features=144, out_features=144, bias=True)
      (res_block): Sequential(
        (0): Linear(in_features=144, out_features=144, bias=True)
        (1): BatchNorm1d(144, eps=1e-05, momentum=0.1, affine=True, track_running_stats=True)
        (2): ReLU(inplace=True)
        (3): Dropout(p=0.0, inplace=False)
        (4): Linear(in_features=144, out_features=144, bias=True)
        (5): BatchNorm1d(144, eps=1e-05, momentum=0.1, affine=True, track_running_stats=True)
      )
      (dropout): Dropout(p=0.0, inplace=False)
    )
  )
  (layer3): Sequential(
    (0): Residual(
      (fc3): Linear(in_features=144, out_features=144, bias=True)
      (fc4): Linear(in_features=144, out_features=144, bias=True)
      (res_block): Sequential(
        (0): Linear(in_features=144, out_features=144, bias=True)
        (1): BatchNorm1d(144, eps=1e-05, momentum=0.1, affine=True, track_running_stats=True)
        (2): ReLU(inplace=True)
        (3): Dropout(p=0.0, inplace=False)
        (4): Linear(in_features=144, out_features=144, bias=True)
        (5): BatchNorm1d(144, eps=1e-05, momentum=0.1, affine=True, track_running_stats=True)
      )
      (dropout): Dropout(p=0.0, inplace=False)
    )
  )
  (layer4): Sequential(
    (0): Residual(
      (fc3): Linear(in_features=144, out_features=144, bias=True)
      (fc4): Linear(in_features=144, out_features=144, bias=True)
      (res_block): Sequential(
        (0): Linear(in_features=144, out_features=144, bias=True)
        (1): BatchNorm1d(144, eps=1e-05, momentum=0.1, affine=True, track_running_stats=True)
        (2): ReLU(inplace=True)
        (3): Dropout(p=0.0, inplace=False)
        (4): Linear(in_features=144, out_features=144, bias=True)
        (5): BatchNorm1d(144, eps=1e-05, momentum=0.1, affine=True, track_running_stats=True)
      )
      (dropout): Dropout(p=0.0, inplace=False)
    )
  )
  (fc5): Linear(in_features=144, out_features=1, bias=True)
  (out): Sequential(
    (0): Dropout(p=0.0, inplace=False)
    (1): Linear(in_features=144, out_features=1, bias=True)
  )
)
 size of the testset: 1200 Proportion of phy/unphy: 1.0
time: 0  size of the trainset: 6000 Proportion of phy/unphy: 1.0 total number of epochs: 300
[ … 0.        ]
        first epoch loss: 1.0802129138918484
        last epoch loss: 0.006927067934371093
        val_loss = 0.07796691171824932
time: 1  size of the trainset: 6000 Proportion of phy/unphy: 1.0 total number of epochs: 300
…
