scale=1000.0	N=20	Net=Deep_sig.24	init=None	num_workers=4	num_seed=0	gauge=True	traindataName=('ME_01', 'ME_CDW_01', 'ME_BDW_01')	valdataName=('ME_01', 'ME_CDW_01', 'ME_BDW_01')
len(trainset)=9600000	len(trainloader)=2344	len(valset)=480000	len(valloader)=118
Model_sig(
  (model): Model(
    (fc1): Linear(in_features=119, out_features=500, bias=True)
    (fc2): Linear(in_features=500, out_features=100, bias=True)
    (pre): Sequential(
      (0): Linear(in_features=119, out_features=500, bias=True)
      (1): BatchNorm1d(500, eps=1e-05, momentum=0.1, affine=True, track_running_stats=True)
      (2): ReLU(inplace=True)
      (3): Dropout(p=0.0, inplace=False)
      (4): Linear(in_features=500, out_features=100, bias=True)
      (5): BatchNorm1d(100, eps=1e-05, momentum=0.1, affine=True, track_running_stats=True)
      (6): ReLU(inplace=True)
      (7): Dropout(p=0.0, inplace=False)
    )
    (layer1): Sequential(
      (0): Residual(
        (fc3): Linear(in_features=100, out_features=100, bias=True)
        (fc4): Linear(in_features=100, out_features=100, bias=True)
        (res_block): Sequential(
          (0): Linear(in_features=100, out_features=100, bias=True)
          (1): BatchNorm1d(100, eps=1e-05, momentum=0.1, affine=True, track_running_stats=True)
          (2): ReLU(inplace=True)
          (3): Dropout(p=0.0, inplace=False)
          (4): Linear(in_features=100, out_features=100, bias=True)
          (5): BatchNorm1d(100, eps=1e-05, momentum=0.1, affine=True, track_running_stats=True)
        )
      )
    )
    (layer2): Sequential(
      (0): Residual(
        (fc3): Linear(in_features=100, out_features=100, bias=True)
        (fc4): Linear(in_features=100, out_features=100, bias=True)
        (res_block): Sequential(
          (0): Linear(in_features=100, out_features=100, bias=True)
          (1): BatchNorm1d(100, eps=1e-05, momentum=0.1, affine=True, track_running_stats=True)
          (2): ReLU(inplace=True)
          (3): Dropout(p=0.0, inplace=False)
          (4): Linear(in_features=100, out_features=100, bias=True)
          (5): BatchNorm1d(100, eps=1e-05, momentum=0.1, affine=True, track_running_stats=True)
        )
      )
    )
    (layer3): Sequential(
      (0): Residual(
        (fc3): Linear(in_features=100, out_features=100, bias=True)
        (fc4): Linear(in_features=100, out_features=100, bias=True)
        (res_block): Sequential(
          (0): Linear(in_features=100, out_features=100, bias=True)
          (1): BatchNorm1d(100, eps=1e-05, momentum=0.1, affine=True, track_running_stats=True)
          (2): ReLU(inplace=True)
          (3): Dropout(p=0.0, inplace=False)
          (4): Linear(in_features=100, out_features=100, bias=True)
          (5): BatchNorm1d(100, eps=1e-05, momentum=0.1, affine=True, track_running_stats=True)
        )
      )
    )
    (layer4): Sequential(
      (0): Residual(
        (fc3): Linear(in_features=100, out_features=100, bias=True)
        (fc4): Linear(in_features=100, out_features=100, bias=True)
        (res_block): Sequential(
          (0): Linear(in_features=100, out_features=100, bias=True)
          (1): BatchNorm1d(100, eps=1e-05, momentum=0.1, affine=True, track_running_stats=True)
          (2): ReLU(inplace=True)
          (3): Dropout(p=0.0, inplace=False)
          (4): Linear(in_features=100, out_features=100, bias=True)
          (5): BatchNorm1d(100, eps=1e-05, momentum=0.1, affine=True, track_running_stats=True)
        )
      )
    )
    (fc5): Linear(in_features=100, out_features=1, bias=True)
    (out): Sequential(
      (0): Dropout(p=0.0, inplace=False)
      (1): Linear(in_features=100, out_features=1, bias=True)
    )
  )
)
epoch=0	epoch loss=0.04397719059407711	val loss=0.02685038794875145
epoch=1	epoch loss=0.02445226265033086	val loss=0.02289877780477206
epoch=2	epoch loss=0.021763686568339664	val loss=0.021033025449514388
epoch=3	epoch loss=0.020117505926887193	val loss=0.01967239770293236
epoch=4	epoch loss=0.01886235861738523	val loss=0.01865461144546668
epoch=5	epoch loss=0.018038299816846848	val loss=0.018299340109030407
…
